{"keras_version": "2.1.6-tf", "backend": "tensorflow", "config": {"layers": [{"config": {"strides": [1, 1], "kernel_constraint": null, "padding": "same", "batch_input_shape": [null, 300, 300, 3], "kernel_initializer": {"config": {"distribution": "uniform", "mode": "fan_avg", "scale": 1.0, "seed": null, "dtype": "float32"}, "class_name": "VarianceScaling"}, "filters": 128, "kernel_size": [3, 3], "activation": "linear", "bias_regularizer": null, "activity_regularizer": null, "name": "conv2d_13", "use_bias": true, "dtype": "float32", "kernel_regularizer": {"config": {"l1": 0.0, "l2": 0.009999999776482582}, "class_name": "L1L2"}, "data_format": "channels_last", "dilation_rate": [1, 1], "bias_initializer": {"config": {"dtype": "float32"}, "class_name": "Zeros"}, "bias_constraint": null, "trainable": true}, "class_name": "Conv2D"}, {"config": {"moving_mean_initializer": {"config": {"dtype": "float32"}, "class_name": "Zeros"}, "scale": true, "axis": [3], "momentum": 0.99, "beta_initializer": {"config": {"dtype": "float32"}, "class_name": "Zeros"}, "gamma_regularizer": null, "name": "batch_normalization_15", "beta_constraint": null, "dtype": "float32", "center": true, "gamma_initializer": {"config": {"dtype": "float32"}, "class_name": "Ones"}, "epsilon": 0.001, "gamma_constraint": null, "moving_variance_initializer": {"config": {"dtype": "float32"}, "class_name": "Ones"}, "trainable": true, "beta_regularizer": null}, "class_name": "BatchNormalization"}, {"config": {"activation": "relu", "name": "activation_15", "dtype": "float32", "trainable": true}, "class_name": "Activation"}, {"config": {"strides": [2, 2], "name": "max_pooling2d_12", "padding": "valid", "trainable": true, "data_format": "channels_last", "pool_size": [2, 2], "dtype": "float32"}, "class_name": "MaxPooling2D"}, {"config": {"strides": [1, 1], "kernel_constraint": null, "padding": "same", "kernel_initializer": {"config": {"distribution": "uniform", "mode": "fan_avg", "scale": 1.0, "seed": null, "dtype": "float32"}, "class_name": "VarianceScaling"}, "filters": 256, "kernel_size": [3, 3], "activation": "linear", "bias_regularizer": null, "activity_regularizer": null, "name": "conv2d_14", "use_bias": true, "dtype": "float32", "kernel_regularizer": null, "data_format": "channels_last", "dilation_rate": [1, 1], "bias_initializer": {"config": {"dtype": "float32"}, "class_name": "Zeros"}, "bias_constraint": null, "trainable": true}, "class_name": "Conv2D"}, {"config": {"moving_mean_initializer": {"config": {"dtype": "float32"}, "class_name": "Zeros"}, "scale": true, "axis": [3], "momentum": 0.99, "beta_initializer": {"config": {"dtype": "float32"}, "class_name": "Zeros"}, "gamma_regularizer": null, "name": "batch_normalization_16", "beta_constraint": null, "dtype": "float32", "center": true, "gamma_initializer": {"config": {"dtype": "float32"}, "class_name": "Ones"}, "epsilon": 0.001, "gamma_constraint": null, "moving_variance_initializer": {"config": {"dtype": "float32"}, "class_name": "Ones"}, "trainable": true, "beta_regularizer": null}, "class_name": "BatchNormalization"}, {"config": {"activation": "relu", "name": "activation_16", "dtype": "float32", "trainable": true}, "class_name": "Activation"}, {"config": {"strides": [2, 2], "name": "max_pooling2d_13", "padding": "valid", "trainable": true, "data_format": "channels_last", "pool_size": [2, 2], "dtype": "float32"}, "class_name": "MaxPooling2D"}, {"config": {"name": "zero_padding2d_11", "padding": [[1, 1], [1, 1]], "dtype": "float32", "trainable": true, "data_format": "channels_last"}, "class_name": "ZeroPadding2D"}, {"config": {"strides": [1, 1], "kernel_constraint": null, "padding": "same", "kernel_initializer": {"config": {"distribution": "uniform", "mode": "fan_avg", "scale": 1.0, "seed": null, "dtype": "float32"}, "class_name": "VarianceScaling"}, "filters": 256, "kernel_size": [3, 3], "activation": "linear", "bias_regularizer": null, "activity_regularizer": null, "name": "conv2d_15", "use_bias": true, "dtype": "float32", "kernel_regularizer": null, "data_format": "channels_last", "dilation_rate": [1, 1], "bias_initializer": {"config": {"dtype": "float32"}, "class_name": "Zeros"}, "bias_constraint": null, "trainable": true}, "class_name": "Conv2D"}, {"config": {"moving_mean_initializer": {"config": {"dtype": "float32"}, "class_name": "Zeros"}, "scale": true, "axis": [3], "momentum": 0.99, "beta_initializer": {"config": {"dtype": "float32"}, "class_name": "Zeros"}, "gamma_regularizer": null, "name": "batch_normalization_17", "beta_constraint": null, "dtype": "float32", "center": true, "gamma_initializer": {"config": {"dtype": "float32"}, "class_name": "Ones"}, "epsilon": 0.001, "gamma_constraint": null, "moving_variance_initializer": {"config": {"dtype": "float32"}, "class_name": "Ones"}, "trainable": true, "beta_regularizer": null}, "class_name": "BatchNormalization"}, {"config": {"activation": "relu", "name": "activation_17", "dtype": "float32", "trainable": true}, "class_name": "Activation"}, {"config": {"name": "zero_padding2d_12", "padding": [[1, 1], [1, 1]], "dtype": "float32", "trainable": true, "data_format": "channels_last"}, "class_name": "ZeroPadding2D"}, {"config": {"strides": [1, 1], "kernel_constraint": null, "padding": "same", "kernel_initializer": {"config": {"distribution": "uniform", "mode": "fan_avg", "scale": 1.0, "seed": null, "dtype": "float32"}, "class_name": "VarianceScaling"}, "filters": 128, "kernel_size": [3, 3], "activation": "linear", "bias_regularizer": null, "activity_regularizer": null, "name": "conv2d_16", "use_bias": true, "dtype": "float32", "kernel_regularizer": null, "data_format": "channels_last", "dilation_rate": [1, 1], "bias_initializer": {"config": {"dtype": "float32"}, "class_name": "Zeros"}, "bias_constraint": null, "trainable": true}, "class_name": "Conv2D"}, {"config": {"moving_mean_initializer": {"config": {"dtype": "float32"}, "class_name": "Zeros"}, "scale": true, "axis": [3], "momentum": 0.99, "beta_initializer": {"config": {"dtype": "float32"}, "class_name": "Zeros"}, "gamma_regularizer": null, "name": "batch_normalization_18", "beta_constraint": null, "dtype": "float32", "center": true, "gamma_initializer": {"config": {"dtype": "float32"}, "class_name": "Ones"}, "epsilon": 0.001, "gamma_constraint": null, "moving_variance_initializer": {"config": {"dtype": "float32"}, "class_name": "Ones"}, "trainable": true, "beta_regularizer": null}, "class_name": "BatchNormalization"}, {"config": {"activation": "relu", "name": "activation_18", "dtype": "float32", "trainable": true}, "class_name": "Activation"}, {"config": {"strides": [2, 2], "name": "max_pooling2d_14", "padding": "valid", "trainable": true, "data_format": "channels_last", "pool_size": [2, 2], "dtype": "float32"}, "class_name": "MaxPooling2D"}, {"config": {"name": "zero_padding2d_13", "padding": [[1, 1], [1, 1]], "dtype": "float32", "trainable": true, "data_format": "channels_last"}, "class_name": "ZeroPadding2D"}, {"config": {"strides": [1, 1], "kernel_constraint": null, "padding": "same", "kernel_initializer": {"config": {"distribution": "uniform", "mode": "fan_avg", "scale": 1.0, "seed": null, "dtype": "float32"}, "class_name": "VarianceScaling"}, "filters": 128, "kernel_size": [3, 3], "activation": "linear", "bias_regularizer": null, "activity_regularizer": null, "name": "conv2d_17", "use_bias": true, "dtype": "float32", "kernel_regularizer": null, "data_format": "channels_last", "dilation_rate": [1, 1], "bias_initializer": {"config": {"dtype": "float32"}, "class_name": "Zeros"}, "bias_constraint": null, "trainable": true}, "class_name": "Conv2D"}, {"config": {"moving_mean_initializer": {"config": {"dtype": "float32"}, "class_name": "Zeros"}, "scale": true, "axis": [3], "momentum": 0.99, "beta_initializer": {"config": {"dtype": "float32"}, "class_name": "Zeros"}, "gamma_regularizer": null, "name": "batch_normalization_19", "beta_constraint": null, "dtype": "float32", "center": true, "gamma_initializer": {"config": {"dtype": "float32"}, "class_name": "Ones"}, "epsilon": 0.001, "gamma_constraint": null, "moving_variance_initializer": {"config": {"dtype": "float32"}, "class_name": "Ones"}, "trainable": true, "beta_regularizer": null}, "class_name": "BatchNormalization"}, {"config": {"activation": "relu", "name": "activation_19", "dtype": "float32", "trainable": true}, "class_name": "Activation"}, {"config": {"strides": [2, 2], "name": "max_pooling2d_15", "padding": "valid", "trainable": true, "data_format": "channels_last", "pool_size": [2, 2], "dtype": "float32"}, "class_name": "MaxPooling2D"}, {"config": {"name": "zero_padding2d_14", "padding": [[1, 1], [1, 1]], "dtype": "float32", "trainable": true, "data_format": "channels_last"}, "class_name": "ZeroPadding2D"}, {"config": {"strides": [1, 1], "kernel_constraint": null, "padding": "same", "kernel_initializer": {"config": {"distribution": "uniform", "mode": "fan_avg", "scale": 1.0, "seed": null, "dtype": "float32"}, "class_name": "VarianceScaling"}, "filters": 128, "kernel_size": [3, 3], "activation": "linear", "bias_regularizer": null, "activity_regularizer": null, "name": "conv2d_18", "use_bias": true, "dtype": "float32", "kernel_regularizer": null, "data_format": "channels_last", "dilation_rate": [1, 1], "bias_initializer": {"config": {"dtype": "float32"}, "class_name": "Zeros"}, "bias_constraint": null, "trainable": true}, "class_name": "Conv2D"}, {"config": {"moving_mean_initializer": {"config": {"dtype": "float32"}, "class_name": "Zeros"}, "scale": true, "axis": [3], "momentum": 0.99, "beta_initializer": {"config": {"dtype": "float32"}, "class_name": "Zeros"}, "gamma_regularizer": null, "name": "batch_normalization_20", "beta_constraint": null, "dtype": "float32", "center": true, "gamma_initializer": {"config": {"dtype": "float32"}, "class_name": "Ones"}, "epsilon": 0.001, "gamma_constraint": null, "moving_variance_initializer": {"config": {"dtype": "float32"}, "class_name": "Ones"}, "trainable": true, "beta_regularizer": null}, "class_name": "BatchNormalization"}, {"config": {"activation": "relu", "name": "activation_20", "dtype": "float32", "trainable": true}, "class_name": "Activation"}, {"config": {"strides": [2, 2], "name": "max_pooling2d_16", "padding": "valid", "trainable": true, "data_format": "channels_last", "pool_size": [2, 2], "dtype": "float32"}, "class_name": "MaxPooling2D"}, {"config": {"name": "zero_padding2d_15", "padding": [[1, 1], [1, 1]], "dtype": "float32", "trainable": true, "data_format": "channels_last"}, "class_name": "ZeroPadding2D"}, {"config": {"strides": [1, 1], "kernel_constraint": null, "padding": "same", "kernel_initializer": {"config": {"distribution": "uniform", "mode": "fan_avg", "scale": 1.0, "seed": null, "dtype": "float32"}, "class_name": "VarianceScaling"}, "filters": 128, "kernel_size": [3, 3], "activation": "linear", "bias_regularizer": null, "activity_regularizer": null, "name": "conv2d_19", "use_bias": true, "dtype": "float32", "kernel_regularizer": null, "data_format": "channels_last", "dilation_rate": [1, 1], "bias_initializer": {"config": {"dtype": "float32"}, "class_name": "Zeros"}, "bias_constraint": null, "trainable": true}, "class_name": "Conv2D"}, {"config": {"moving_mean_initializer": {"config": {"dtype": "float32"}, "class_name": "Zeros"}, "scale": true, "axis": [3], "momentum": 0.99, "beta_initializer": {"config": {"dtype": "float32"}, "class_name": "Zeros"}, "gamma_regularizer": null, "name": "batch_normalization_21", "beta_constraint": null, "dtype": "float32", "center": true, "gamma_initializer": {"config": {"dtype": "float32"}, "class_name": "Ones"}, "epsilon": 0.001, "gamma_constraint": null, "moving_variance_initializer": {"config": {"dtype": "float32"}, "class_name": "Ones"}, "trainable": true, "beta_regularizer": null}, "class_name": "BatchNormalization"}, {"config": {"activation": "relu", "name": "activation_21", "dtype": "float32", "trainable": true}, "class_name": "Activation"}, {"config": {"strides": [2, 2], "name": "max_pooling2d_17", "padding": "valid", "trainable": true, "data_format": "channels_last", "pool_size": [2, 2], "dtype": "float32"}, "class_name": "MaxPooling2D"}, {"config": {"name": "zero_padding2d_16", "padding": [[1, 1], [1, 1]], "dtype": "float32", "trainable": true, "data_format": "channels_last"}, "class_name": "ZeroPadding2D"}, {"config": {"strides": [1, 1], "kernel_constraint": null, "padding": "same", "kernel_initializer": {"config": {"distribution": "uniform", "mode": "fan_avg", "scale": 1.0, "seed": null, "dtype": "float32"}, "class_name": "VarianceScaling"}, "filters": 128, "kernel_size": [3, 3], "activation": "linear", "bias_regularizer": null, "activity_regularizer": null, "name": "conv2d_20", "use_bias": true, "dtype": "float32", "kernel_regularizer": null, "data_format": "channels_last", "dilation_rate": [1, 1], "bias_initializer": {"config": {"dtype": "float32"}, "class_name": "Zeros"}, "bias_constraint": null, "trainable": true}, "class_name": "Conv2D"}, {"config": {"moving_mean_initializer": {"config": {"dtype": "float32"}, "class_name": "Zeros"}, "scale": true, "axis": [3], "momentum": 0.99, "beta_initializer": {"config": {"dtype": "float32"}, "class_name": "Zeros"}, "gamma_regularizer": null, "name": "batch_normalization_22", "beta_constraint": null, "dtype": "float32", "center": true, "gamma_initializer": {"config": {"dtype": "float32"}, "class_name": "Ones"}, "epsilon": 0.001, "gamma_constraint": null, "moving_variance_initializer": {"config": {"dtype": "float32"}, "class_name": "Ones"}, "trainable": true, "beta_regularizer": null}, "class_name": "BatchNormalization"}, {"config": {"activation": "relu", "name": "activation_22", "dtype": "float32", "trainable": true}, "class_name": "Activation"}, {"config": {"strides": [2, 2], "name": "max_pooling2d_18", "padding": "valid", "trainable": true, "data_format": "channels_last", "pool_size": [2, 2], "dtype": "float32"}, "class_name": "MaxPooling2D"}, {"config": {"name": "zero_padding2d_17", "padding": [[1, 1], [1, 1]], "dtype": "float32", "trainable": true, "data_format": "channels_last"}, "class_name": "ZeroPadding2D"}, {"config": {"strides": [1, 1], "kernel_constraint": null, "padding": "same", "kernel_initializer": {"config": {"distribution": "uniform", "mode": "fan_avg", "scale": 1.0, "seed": null, "dtype": "float32"}, "class_name": "VarianceScaling"}, "filters": 128, "kernel_size": [3, 3], "activation": "linear", "bias_regularizer": null, "activity_regularizer": null, "name": "conv2d_21", "use_bias": true, "dtype": "float32", "kernel_regularizer": null, "data_format": "channels_last", "dilation_rate": [1, 1], "bias_initializer": {"config": {"dtype": "float32"}, "class_name": "Zeros"}, "bias_constraint": null, "trainable": true}, "class_name": "Conv2D"}, {"config": {"moving_mean_initializer": {"config": {"dtype": "float32"}, "class_name": "Zeros"}, "scale": true, "axis": [3], "momentum": 0.99, "beta_initializer": {"config": {"dtype": "float32"}, "class_name": "Zeros"}, "gamma_regularizer": null, "name": "batch_normalization_23", "beta_constraint": null, "dtype": "float32", "center": true, "gamma_initializer": {"config": {"dtype": "float32"}, "class_name": "Ones"}, "epsilon": 0.001, "gamma_constraint": null, "moving_variance_initializer": {"config": {"dtype": "float32"}, "class_name": "Ones"}, "trainable": true, "beta_regularizer": null}, "class_name": "BatchNormalization"}, {"config": {"activation": "relu", "name": "activation_23", "dtype": "float32", "trainable": true}, "class_name": "Activation"}, {"config": {"strides": [2, 2], "name": "max_pooling2d_19", "padding": "valid", "trainable": true, "data_format": "channels_last", "pool_size": [2, 2], "dtype": "float32"}, "class_name": "MaxPooling2D"}, {"config": {"name": "zero_padding2d_18", "padding": [[1, 1], [1, 1]], "dtype": "float32", "trainable": true, "data_format": "channels_last"}, "class_name": "ZeroPadding2D"}, {"config": {"strides": [1, 1], "kernel_constraint": null, "padding": "same", "kernel_initializer": {"config": {"distribution": "uniform", "mode": "fan_avg", "scale": 1.0, "seed": null, "dtype": "float32"}, "class_name": "VarianceScaling"}, "filters": 128, "kernel_size": [3, 3], "activation": "linear", "bias_regularizer": null, "activity_regularizer": null, "name": "conv2d_22", "use_bias": true, "dtype": "float32", "kernel_regularizer": null, "data_format": "channels_last", "dilation_rate": [1, 1], "bias_initializer": {"config": {"dtype": "float32"}, "class_name": "Zeros"}, "bias_constraint": null, "trainable": true}, "class_name": "Conv2D"}, {"config": {"moving_mean_initializer": {"config": {"dtype": "float32"}, "class_name": "Zeros"}, "scale": true, "axis": [3], "momentum": 0.99, "beta_initializer": {"config": {"dtype": "float32"}, "class_name": "Zeros"}, "gamma_regularizer": null, "name": "batch_normalization_24", "beta_constraint": null, "dtype": "float32", "center": true, "gamma_initializer": {"config": {"dtype": "float32"}, "class_name": "Ones"}, "epsilon": 0.001, "gamma_constraint": null, "moving_variance_initializer": {"config": {"dtype": "float32"}, "class_name": "Ones"}, "trainable": true, "beta_regularizer": null}, "class_name": "BatchNormalization"}, {"config": {"activation": "relu", "name": "activation_24", "dtype": "float32", "trainable": true}, "class_name": "Activation"}, {"config": {"strides": [2, 2], "name": "max_pooling2d_20", "padding": "valid", "trainable": true, "data_format": "channels_last", "pool_size": [2, 2], "dtype": "float32"}, "class_name": "MaxPooling2D"}, {"config": {"name": "zero_padding2d_19", "padding": [[1, 1], [1, 1]], "dtype": "float32", "trainable": true, "data_format": "channels_last"}, "class_name": "ZeroPadding2D"}, {"config": {"strides": [1, 1], "kernel_constraint": null, "padding": "same", "kernel_initializer": {"config": {"distribution": "uniform", "mode": "fan_avg", "scale": 1.0, "seed": null, "dtype": "float32"}, "class_name": "VarianceScaling"}, "filters": 128, "kernel_size": [3, 3], "activation": "linear", "bias_regularizer": null, "activity_regularizer": null, "name": "conv2d_23", "use_bias": true, "dtype": "float32", "kernel_regularizer": null, "data_format": "channels_last", "dilation_rate": [1, 1], "bias_initializer": {"config": {"dtype": "float32"}, "class_name": "Zeros"}, "bias_constraint": null, "trainable": true}, "class_name": "Conv2D"}, {"config": {"moving_mean_initializer": {"config": {"dtype": "float32"}, "class_name": "Zeros"}, "scale": true, "axis": [3], "momentum": 0.99, "beta_initializer": {"config": {"dtype": "float32"}, "class_name": "Zeros"}, "gamma_regularizer": null, "name": "batch_normalization_25", "beta_constraint": null, "dtype": "float32", "center": true, "gamma_initializer": {"config": {"dtype": "float32"}, "class_name": "Ones"}, "epsilon": 0.001, "gamma_constraint": null, "moving_variance_initializer": {"config": {"dtype": "float32"}, "class_name": "Ones"}, "trainable": true, "beta_regularizer": null}, "class_name": "BatchNormalization"}, {"config": {"activation": "relu", "name": "activation_25", "dtype": "float32", "trainable": true}, "class_name": "Activation"}, {"config": {"strides": [2, 2], "name": "max_pooling2d_21", "padding": "valid", "trainable": true, "data_format": "channels_last", "pool_size": [2, 2], "dtype": "float32"}, "class_name": "MaxPooling2D"}, {"config": {"name": "zero_padding2d_20", "padding": [[1, 1], [1, 1]], "dtype": "float32", "trainable": true, "data_format": "channels_last"}, "class_name": "ZeroPadding2D"}, {"config": {"strides": [1, 1], "kernel_constraint": null, "padding": "same", "kernel_initializer": {"config": {"distribution": "uniform", "mode": "fan_avg", "scale": 1.0, "seed": null, "dtype": "float32"}, "class_name": "VarianceScaling"}, "filters": 128, "kernel_size": [3, 3], "activation": "linear", "bias_regularizer": null, "activity_regularizer": null, "name": "conv2d_24", "use_bias": true, "dtype": "float32", "kernel_regularizer": null, "data_format": "channels_last", "dilation_rate": [1, 1], "bias_initializer": {"config": {"dtype": "float32"}, "class_name": "Zeros"}, "bias_constraint": null, "trainable": true}, "class_name": "Conv2D"}, {"config": {"moving_mean_initializer": {"config": {"dtype": "float32"}, "class_name": "Zeros"}, "scale": true, "axis": [3], "momentum": 0.99, "beta_initializer": {"config": {"dtype": "float32"}, "class_name": "Zeros"}, "gamma_regularizer": null, "name": "batch_normalization_26", "beta_constraint": null, "dtype": "float32", "center": true, "gamma_initializer": {"config": {"dtype": "float32"}, "class_name": "Ones"}, "epsilon": 0.001, "gamma_constraint": null, "moving_variance_initializer": {"config": {"dtype": "float32"}, "class_name": "Ones"}, "trainable": true, "beta_regularizer": null}, "class_name": "BatchNormalization"}, {"config": {"activation": "relu", "name": "activation_26", "dtype": "float32", "trainable": true}, "class_name": "Activation"}, {"config": {"strides": [2, 2], "name": "max_pooling2d_22", "padding": "valid", "trainable": true, "data_format": "channels_last", "pool_size": [2, 2], "dtype": "float32"}, "class_name": "MaxPooling2D"}, {"config": {"name": "zero_padding2d_21", "padding": [[1, 1], [1, 1]], "dtype": "float32", "trainable": true, "data_format": "channels_last"}, "class_name": "ZeroPadding2D"}, {"config": {"strides": [1, 1], "kernel_constraint": null, "padding": "same", "kernel_initializer": {"config": {"distribution": "uniform", "mode": "fan_avg", "scale": 1.0, "seed": null, "dtype": "float32"}, "class_name": "VarianceScaling"}, "filters": 128, "kernel_size": [3, 3], "activation": "linear", "bias_regularizer": null, "activity_regularizer": null, "name": "conv2d_25", "use_bias": true, "dtype": "float32", "kernel_regularizer": null, "data_format": "channels_last", "dilation_rate": [1, 1], "bias_initializer": {"config": {"dtype": "float32"}, "class_name": "Zeros"}, "bias_constraint": null, "trainable": true}, "class_name": "Conv2D"}, {"config": {"moving_mean_initializer": {"config": {"dtype": "float32"}, "class_name": "Zeros"}, "scale": true, "axis": [3], "momentum": 0.99, "beta_initializer": {"config": {"dtype": "float32"}, "class_name": "Zeros"}, "gamma_regularizer": null, "name": "batch_normalization_27", "beta_constraint": null, "dtype": "float32", "center": true, "gamma_initializer": {"config": {"dtype": "float32"}, "class_name": "Ones"}, "epsilon": 0.001, "gamma_constraint": null, "moving_variance_initializer": {"config": {"dtype": "float32"}, "class_name": "Ones"}, "trainable": true, "beta_regularizer": null}, "class_name": "BatchNormalization"}, {"config": {"activation": "relu", "name": "activation_27", "dtype": "float32", "trainable": true}, "class_name": "Activation"}, {"config": {"strides": [2, 2], "name": "max_pooling2d_23", "padding": "valid", "trainable": true, "data_format": "channels_last", "pool_size": [2, 2], "dtype": "float32"}, "class_name": "MaxPooling2D"}, {"config": {"name": "flatten_1", "dtype": "float32", "trainable": true, "data_format": "channels_last"}, "class_name": "Flatten"}, {"config": {"activation": "linear", "kernel_constraint": null, "kernel_initializer": {"config": {"distribution": "uniform", "mode": "fan_avg", "scale": 1.0, "seed": null, "dtype": "float32"}, "class_name": "VarianceScaling"}, "dtype": "float32", "bias_regularizer": null, "activity_regularizer": null, "name": "dense_2", "use_bias": true, "units": 1024, "kernel_regularizer": null, "bias_initializer": {"config": {"dtype": "float32"}, "class_name": "Zeros"}, "bias_constraint": null, "trainable": true}, "class_name": "Dense"}, {"config": {"moving_mean_initializer": {"config": {"dtype": "float32"}, "class_name": "Zeros"}, "scale": true, "axis": [1], "momentum": 0.99, "beta_initializer": {"config": {"dtype": "float32"}, "class_name": "Zeros"}, "gamma_regularizer": null, "name": "batch_normalization_28", "beta_constraint": null, "dtype": "float32", "center": true, "gamma_initializer": {"config": {"dtype": "float32"}, "class_name": "Ones"}, "epsilon": 0.001, "gamma_constraint": null, "moving_variance_initializer": {"config": {"dtype": "float32"}, "class_name": "Ones"}, "trainable": true, "beta_regularizer": null}, "class_name": "BatchNormalization"}, {"config": {"activation": "relu", "name": "activation_28", "dtype": "float32", "trainable": true}, "class_name": "Activation"}, {"config": {"name": "dropout_1", "trainable": true, "rate": 0.5, "noise_shape": null, "seed": null, "dtype": "float32"}, "class_name": "Dropout"}, {"config": {"activation": "linear", "kernel_constraint": null, "kernel_initializer": {"config": {"distribution": "uniform", "mode": "fan_avg", "scale": 1.0, "seed": null, "dtype": "float32"}, "class_name": "VarianceScaling"}, "dtype": "float32", "bias_regularizer": null, "activity_regularizer": null, "name": "dense_3", "use_bias": true, "units": 12, "kernel_regularizer": null, "bias_initializer": {"config": {"dtype": "float32"}, "class_name": "Zeros"}, "bias_constraint": null, "trainable": true}, "class_name": "Dense"}, {"config": {"moving_mean_initializer": {"config": {"dtype": "float32"}, "class_name": "Zeros"}, "scale": true, "axis": [1], "momentum": 0.99, "beta_initializer": {"config": {"dtype": "float32"}, "class_name": "Zeros"}, "gamma_regularizer": null, "name": "batch_normalization_29", "beta_constraint": null, "dtype": "float32", "center": true, "gamma_initializer": {"config": {"dtype": "float32"}, "class_name": "Ones"}, "epsilon": 0.001, "gamma_constraint": null, "moving_variance_initializer": {"config": {"dtype": "float32"}, "class_name": "Ones"}, "trainable": true, "beta_regularizer": null}, "class_name": "BatchNormalization"}, {"config": {"activation": "softmax", "name": "activation_29", "dtype": "float32", "trainable": true}, "class_name": "Activation"}], "name": "sequential_1"}, "class_name": "Sequential"}