{"keras_version": "2.1.6-tf", "config": {"name": "sequential_1", "layers": [{"config": {"bias_constraint": null, "kernel_regularizer": {"config": {"l1": 0.0, "l2": 0.009999999776482582}, "class_name": "L1L2"}, "batch_input_shape": [null, 300, 300, 3], "activation": "linear", "strides": [1, 1], "filters": 128, "name": "conv2d_13", "kernel_initializer": {"config": {"dtype": "float32", "mode": "fan_avg", "distribution": "uniform", "seed": null, "scale": 1.0}, "class_name": "VarianceScaling"}, "dilation_rate": [1, 1], "use_bias": true, "data_format": "channels_last", "kernel_constraint": null, "bias_regularizer": null, "trainable": true, "bias_initializer": {"config": {"dtype": "float32"}, "class_name": "Zeros"}, "activity_regularizer": null, "kernel_size": [3, 3], "padding": "same", "dtype": "float32"}, "class_name": "Conv2D"}, {"config": {"moving_variance_initializer": {"config": {"dtype": "float32"}, "class_name": "Ones"}, "name": "batch_normalization_15", "gamma_regularizer": null, "gamma_initializer": {"config": {"dtype": "float32"}, "class_name": "Ones"}, "axis": [3], "beta_constraint": null, "beta_regularizer": null, "dtype": "float32", "moving_mean_initializer": {"config": {"dtype": "float32"}, "class_name": "Zeros"}, "trainable": true, "beta_initializer": {"config": {"dtype": "float32"}, "class_name": "Zeros"}, "scale": true, "epsilon": 0.001, "gamma_constraint": null, "momentum": 0.99, "center": true}, "class_name": "BatchNormalization"}, {"config": {"name": "activation_15", "trainable": true, "activation": "relu", "dtype": "float32"}, "class_name": "Activation"}, {"config": {"data_format": "channels_last", "dtype": "float32", "trainable": true, "strides": [2, 2], "pool_size": [2, 2], "name": "max_pooling2d_12", "padding": "valid"}, "class_name": "MaxPooling2D"}, {"config": {"bias_constraint": null, "kernel_regularizer": null, "trainable": true, "activation": "linear", "strides": [1, 1], "use_bias": true, "name": "conv2d_14", "kernel_initializer": {"config": {"dtype": "float32", "mode": "fan_avg", "distribution": "uniform", "seed": null, "scale": 1.0}, "class_name": "VarianceScaling"}, "dilation_rate": [1, 1], "filters": 256, "data_format": "channels_last", "kernel_constraint": null, "bias_regularizer": null, "kernel_size": [3, 3], "bias_initializer": {"config": {"dtype": "float32"}, "class_name": "Zeros"}, "activity_regularizer": null, "padding": "same", "dtype": "float32"}, "class_name": "Conv2D"}, {"config": {"moving_variance_initializer": {"config": {"dtype": "float32"}, "class_name": "Ones"}, "name": "batch_normalization_16", "gamma_regularizer": null, "gamma_initializer": {"config": {"dtype": "float32"}, "class_name": "Ones"}, "axis": [3], "beta_constraint": null, "beta_regularizer": null, "dtype": "float32", "moving_mean_initializer": {"config": {"dtype": "float32"}, "class_name": "Zeros"}, "trainable": true, "beta_initializer": {"config": {"dtype": "float32"}, "class_name": "Zeros"}, "scale": true, "epsilon": 0.001, "gamma_constraint": null, "momentum": 0.99, "center": true}, "class_name": "BatchNormalization"}, {"config": {"name": "activation_16", "trainable": true, "activation": "relu", "dtype": "float32"}, "class_name": "Activation"}, {"config": {"data_format": "channels_last", "dtype": "float32", "trainable": true, "strides": [2, 2], "pool_size": [2, 2], "name": "max_pooling2d_13", "padding": "valid"}, "class_name": "MaxPooling2D"}, {"config": {"data_format": "channels_last", "name": "zero_padding2d_11", "trainable": true, "padding": [[1, 1], [1, 1]], "dtype": "float32"}, "class_name": "ZeroPadding2D"}, {"config": {"bias_constraint": null, "kernel_regularizer": null, "trainable": true, "activation": "linear", "strides": [1, 1], "use_bias": true, "name": "conv2d_15", "kernel_initializer": {"config": {"dtype": "float32", "mode": "fan_avg", "distribution": "uniform", "seed": null, "scale": 1.0}, "class_name": "VarianceScaling"}, "dilation_rate": [1, 1], "filters": 256, "data_format": "channels_last", "kernel_constraint": null, "bias_regularizer": null, "kernel_size": [3, 3], "bias_initializer": {"config": {"dtype": "float32"}, "class_name": "Zeros"}, "activity_regularizer": null, "padding": "same", "dtype": "float32"}, "class_name": "Conv2D"}, {"config": {"moving_variance_initializer": {"config": {"dtype": "float32"}, "class_name": "Ones"}, "name": "batch_normalization_17", "gamma_regularizer": null, "gamma_initializer": {"config": {"dtype": "float32"}, "class_name": "Ones"}, "axis": [3], "beta_constraint": null, "beta_regularizer": null, "dtype": "float32", "moving_mean_initializer": {"config": {"dtype": "float32"}, "class_name": "Zeros"}, "trainable": true, "beta_initializer": {"config": {"dtype": "float32"}, "class_name": "Zeros"}, "scale": true, "epsilon": 0.001, "gamma_constraint": null, "momentum": 0.99, "center": true}, "class_name": "BatchNormalization"}, {"config": {"name": "activation_17", "trainable": true, "activation": "relu", "dtype": "float32"}, "class_name": "Activation"}, {"config": {"data_format": "channels_last", "name": "zero_padding2d_12", "trainable": true, "padding": [[1, 1], [1, 1]], "dtype": "float32"}, "class_name": "ZeroPadding2D"}, {"config": {"bias_constraint": null, "kernel_regularizer": null, "trainable": true, "activation": "linear", "strides": [1, 1], "use_bias": true, "name": "conv2d_16", "kernel_initializer": {"config": {"dtype": "float32", "mode": "fan_avg", "distribution": "uniform", "seed": null, "scale": 1.0}, "class_name": "VarianceScaling"}, "dilation_rate": [1, 1], "filters": 128, "data_format": "channels_last", "kernel_constraint": null, "bias_regularizer": null, "kernel_size": [3, 3], "bias_initializer": {"config": {"dtype": "float32"}, "class_name": "Zeros"}, "activity_regularizer": null, "padding": "same", "dtype": "float32"}, "class_name": "Conv2D"}, {"config": {"moving_variance_initializer": {"config": {"dtype": "float32"}, "class_name": "Ones"}, "name": "batch_normalization_18", "gamma_regularizer": null, "gamma_initializer": {"config": {"dtype": "float32"}, "class_name": "Ones"}, "axis": [3], "beta_constraint": null, "beta_regularizer": null, "dtype": "float32", "moving_mean_initializer": {"config": {"dtype": "float32"}, "class_name": "Zeros"}, "trainable": true, "beta_initializer": {"config": {"dtype": "float32"}, "class_name": "Zeros"}, "scale": true, "epsilon": 0.001, "gamma_constraint": null, "momentum": 0.99, "center": true}, "class_name": "BatchNormalization"}, {"config": {"name": "activation_18", "trainable": true, "activation": "relu", "dtype": "float32"}, "class_name": "Activation"}, {"config": {"data_format": "channels_last", "dtype": "float32", "trainable": true, "strides": [2, 2], "pool_size": [2, 2], "name": "max_pooling2d_14", "padding": "valid"}, "class_name": "MaxPooling2D"}, {"config": {"data_format": "channels_last", "name": "zero_padding2d_13", "trainable": true, "padding": [[1, 1], [1, 1]], "dtype": "float32"}, "class_name": "ZeroPadding2D"}, {"config": {"bias_constraint": null, "kernel_regularizer": null, "trainable": true, "activation": "linear", "strides": [1, 1], "use_bias": true, "name": "conv2d_17", "kernel_initializer": {"config": {"dtype": "float32", "mode": "fan_avg", "distribution": "uniform", "seed": null, "scale": 1.0}, "class_name": "VarianceScaling"}, "dilation_rate": [1, 1], "filters": 128, "data_format": "channels_last", "kernel_constraint": null, "bias_regularizer": null, "kernel_size": [3, 3], "bias_initializer": {"config": {"dtype": "float32"}, "class_name": "Zeros"}, "activity_regularizer": null, "padding": "same", "dtype": "float32"}, "class_name": "Conv2D"}, {"config": {"moving_variance_initializer": {"config": {"dtype": "float32"}, "class_name": "Ones"}, "name": "batch_normalization_19", "gamma_regularizer": null, "gamma_initializer": {"config": {"dtype": "float32"}, "class_name": "Ones"}, "axis": [3], "beta_constraint": null, "beta_regularizer": null, "dtype": "float32", "moving_mean_initializer": {"config": {"dtype": "float32"}, "class_name": "Zeros"}, "trainable": true, "beta_initializer": {"config": {"dtype": "float32"}, "class_name": "Zeros"}, "scale": true, "epsilon": 0.001, "gamma_constraint": null, "momentum": 0.99, "center": true}, "class_name": "BatchNormalization"}, {"config": {"name": "activation_19", "trainable": true, "activation": "relu", "dtype": "float32"}, "class_name": "Activation"}, {"config": {"data_format": "channels_last", "dtype": "float32", "trainable": true, "strides": [2, 2], "pool_size": [2, 2], "name": "max_pooling2d_15", "padding": "valid"}, "class_name": "MaxPooling2D"}, {"config": {"data_format": "channels_last", "name": "zero_padding2d_14", "trainable": true, "padding": [[1, 1], [1, 1]], "dtype": "float32"}, "class_name": "ZeroPadding2D"}, {"config": {"bias_constraint": null, "kernel_regularizer": null, "trainable": true, "activation": "linear", "strides": [1, 1], "use_bias": true, "name": "conv2d_18", "kernel_initializer": {"config": {"dtype": "float32", "mode": "fan_avg", "distribution": "uniform", "seed": null, "scale": 1.0}, "class_name": "VarianceScaling"}, "dilation_rate": [1, 1], "filters": 128, "data_format": "channels_last", "kernel_constraint": null, "bias_regularizer": null, "kernel_size": [3, 3], "bias_initializer": {"config": {"dtype": "float32"}, "class_name": "Zeros"}, "activity_regularizer": null, "padding": "same", "dtype": "float32"}, "class_name": "Conv2D"}, {"config": {"moving_variance_initializer": {"config": {"dtype": "float32"}, "class_name": "Ones"}, "name": "batch_normalization_20", "gamma_regularizer": null, "gamma_initializer": {"config": {"dtype": "float32"}, "class_name": "Ones"}, "axis": [3], "beta_constraint": null, "beta_regularizer": null, "dtype": "float32", "moving_mean_initializer": {"config": {"dtype": "float32"}, "class_name": "Zeros"}, "trainable": true, "beta_initializer": {"config": {"dtype": "float32"}, "class_name": "Zeros"}, "scale": true, "epsilon": 0.001, "gamma_constraint": null, "momentum": 0.99, "center": true}, "class_name": "BatchNormalization"}, {"config": {"name": "activation_20", "trainable": true, "activation": "relu", "dtype": "float32"}, "class_name": "Activation"}, {"config": {"data_format": "channels_last", "dtype": "float32", "trainable": true, "strides": [2, 2], "pool_size": [2, 2], "name": "max_pooling2d_16", "padding": "valid"}, "class_name": "MaxPooling2D"}, {"config": {"data_format": "channels_last", "name": "zero_padding2d_15", "trainable": true, "padding": [[1, 1], [1, 1]], "dtype": "float32"}, "class_name": "ZeroPadding2D"}, {"config": {"bias_constraint": null, "kernel_regularizer": null, "trainable": true, "activation": "linear", "strides": [1, 1], "use_bias": true, "name": "conv2d_19", "kernel_initializer": {"config": {"dtype": "float32", "mode": "fan_avg", "distribution": "uniform", "seed": null, "scale": 1.0}, "class_name": "VarianceScaling"}, "dilation_rate": [1, 1], "filters": 128, "data_format": "channels_last", "kernel_constraint": null, "bias_regularizer": null, "kernel_size": [3, 3], "bias_initializer": {"config": {"dtype": "float32"}, "class_name": "Zeros"}, "activity_regularizer": null, "padding": "same", "dtype": "float32"}, "class_name": "Conv2D"}, {"config": {"moving_variance_initializer": {"config": {"dtype": "float32"}, "class_name": "Ones"}, "name": "batch_normalization_21", "gamma_regularizer": null, "gamma_initializer": {"config": {"dtype": "float32"}, "class_name": "Ones"}, "axis": [3], "beta_constraint": null, "beta_regularizer": null, "dtype": "float32", "moving_mean_initializer": {"config": {"dtype": "float32"}, "class_name": "Zeros"}, "trainable": true, "beta_initializer": {"config": {"dtype": "float32"}, "class_name": "Zeros"}, "scale": true, "epsilon": 0.001, "gamma_constraint": null, "momentum": 0.99, "center": true}, "class_name": "BatchNormalization"}, {"config": {"name": "activation_21", "trainable": true, "activation": "relu", "dtype": "float32"}, "class_name": "Activation"}, {"config": {"data_format": "channels_last", "dtype": "float32", "trainable": true, "strides": [2, 2], "pool_size": [2, 2], "name": "max_pooling2d_17", "padding": "valid"}, "class_name": "MaxPooling2D"}, {"config": {"data_format": "channels_last", "name": "zero_padding2d_16", "trainable": true, "padding": [[1, 1], [1, 1]], "dtype": "float32"}, "class_name": "ZeroPadding2D"}, {"config": {"bias_constraint": null, "kernel_regularizer": null, "trainable": true, "activation": "linear", "strides": [1, 1], "use_bias": true, "name": "conv2d_20", "kernel_initializer": {"config": {"dtype": "float32", "mode": "fan_avg", "distribution": "uniform", "seed": null, "scale": 1.0}, "class_name": "VarianceScaling"}, "dilation_rate": [1, 1], "filters": 128, "data_format": "channels_last", "kernel_constraint": null, "bias_regularizer": null, "kernel_size": [3, 3], "bias_initializer": {"config": {"dtype": "float32"}, "class_name": "Zeros"}, "activity_regularizer": null, "padding": "same", "dtype": "float32"}, "class_name": "Conv2D"}, {"config": {"moving_variance_initializer": {"config": {"dtype": "float32"}, "class_name": "Ones"}, "name": "batch_normalization_22", "gamma_regularizer": null, "gamma_initializer": {"config": {"dtype": "float32"}, "class_name": "Ones"}, "axis": [3], "beta_constraint": null, "beta_regularizer": null, "dtype": "float32", "moving_mean_initializer": {"config": {"dtype": "float32"}, "class_name": "Zeros"}, "trainable": true, "beta_initializer": {"config": {"dtype": "float32"}, "class_name": "Zeros"}, "scale": true, "epsilon": 0.001, "gamma_constraint": null, "momentum": 0.99, "center": true}, "class_name": "BatchNormalization"}, {"config": {"name": "activation_22", "trainable": true, "activation": "relu", "dtype": "float32"}, "class_name": "Activation"}, {"config": {"data_format": "channels_last", "dtype": "float32", "trainable": true, "strides": [2, 2], "pool_size": [2, 2], "name": "max_pooling2d_18", "padding": "valid"}, "class_name": "MaxPooling2D"}, {"config": {"data_format": "channels_last", "name": "zero_padding2d_17", "trainable": true, "padding": [[1, 1], [1, 1]], "dtype": "float32"}, "class_name": "ZeroPadding2D"}, {"config": {"bias_constraint": null, "kernel_regularizer": null, "trainable": true, "activation": "linear", "strides": [1, 1], "use_bias": true, "name": "conv2d_21", "kernel_initializer": {"config": {"dtype": "float32", "mode": "fan_avg", "distribution": "uniform", "seed": null, "scale": 1.0}, "class_name": "VarianceScaling"}, "dilation_rate": [1, 1], "filters": 128, "data_format": "channels_last", "kernel_constraint": null, "bias_regularizer": null, "kernel_size": [3, 3], "bias_initializer": {"config": {"dtype": "float32"}, "class_name": "Zeros"}, "activity_regularizer": null, "padding": "same", "dtype": "float32"}, "class_name": "Conv2D"}, {"config": {"moving_variance_initializer": {"config": {"dtype": "float32"}, "class_name": "Ones"}, "name": "batch_normalization_23", "gamma_regularizer": null, "gamma_initializer": {"config": {"dtype": "float32"}, "class_name": "Ones"}, "axis": [3], "beta_constraint": null, "beta_regularizer": null, "dtype": "float32", "moving_mean_initializer": {"config": {"dtype": "float32"}, "class_name": "Zeros"}, "trainable": true, "beta_initializer": {"config": {"dtype": "float32"}, "class_name": "Zeros"}, "scale": true, "epsilon": 0.001, "gamma_constraint": null, "momentum": 0.99, "center": true}, "class_name": "BatchNormalization"}, {"config": {"name": "activation_23", "trainable": true, "activation": "relu", "dtype": "float32"}, "class_name": "Activation"}, {"config": {"data_format": "channels_last", "dtype": "float32", "trainable": true, "strides": [2, 2], "pool_size": [2, 2], "name": "max_pooling2d_19", "padding": "valid"}, "class_name": "MaxPooling2D"}, {"config": {"data_format": "channels_last", "name": "zero_padding2d_18", "trainable": true, "padding": [[1, 1], [1, 1]], "dtype": "float32"}, "class_name": "ZeroPadding2D"}, {"config": {"bias_constraint": null, "kernel_regularizer": null, "trainable": true, "activation": "linear", "strides": [1, 1], "use_bias": true, "name": "conv2d_22", "kernel_initializer": {"config": {"dtype": "float32", "mode": "fan_avg", "distribution": "uniform", "seed": null, "scale": 1.0}, "class_name": "VarianceScaling"}, "dilation_rate": [1, 1], "filters": 128, "data_format": "channels_last", "kernel_constraint": null, "bias_regularizer": null, "kernel_size": [3, 3], "bias_initializer": {"config": {"dtype": "float32"}, "class_name": "Zeros"}, "activity_regularizer": null, "padding": "same", "dtype": "float32"}, "class_name": "Conv2D"}, {"config": {"moving_variance_initializer": {"config": {"dtype": "float32"}, "class_name": "Ones"}, "name": "batch_normalization_24", "gamma_regularizer": null, "gamma_initializer": {"config": {"dtype": "float32"}, "class_name": "Ones"}, "axis": [3], "beta_constraint": null, "beta_regularizer": null, "dtype": "float32", "moving_mean_initializer": {"config": {"dtype": "float32"}, "class_name": "Zeros"}, "trainable": true, "beta_initializer": {"config": {"dtype": "float32"}, "class_name": "Zeros"}, "scale": true, "epsilon": 0.001, "gamma_constraint": null, "momentum": 0.99, "center": true}, "class_name": "BatchNormalization"}, {"config": {"name": "activation_24", "trainable": true, "activation": "relu", "dtype": "float32"}, "class_name": "Activation"}, {"config": {"data_format": "channels_last", "dtype": "float32", "trainable": true, "strides": [2, 2], "pool_size": [2, 2], "name": "max_pooling2d_20", "padding": "valid"}, "class_name": "MaxPooling2D"}, {"config": {"data_format": "channels_last", "name": "zero_padding2d_19", "trainable": true, "padding": [[1, 1], [1, 1]], "dtype": "float32"}, "class_name": "ZeroPadding2D"}, {"config": {"bias_constraint": null, "kernel_regularizer": null, "trainable": true, "activation": "linear", "strides": [1, 1], "use_bias": true, "name": "conv2d_23", "kernel_initializer": {"config": {"dtype": "float32", "mode": "fan_avg", "distribution": "uniform", "seed": null, "scale": 1.0}, "class_name": "VarianceScaling"}, "dilation_rate": [1, 1], "filters": 128, "data_format": "channels_last", "kernel_constraint": null, "bias_regularizer": null, "kernel_size": [3, 3], "bias_initializer": {"config": {"dtype": "float32"}, "class_name": "Zeros"}, "activity_regularizer": null, "padding": "same", "dtype": "float32"}, "class_name": "Conv2D"}, {"config": {"moving_variance_initializer": {"config": {"dtype": "float32"}, "class_name": "Ones"}, "name": "batch_normalization_25", "gamma_regularizer": null, "gamma_initializer": {"config": {"dtype": "float32"}, "class_name": "Ones"}, "axis": [3], "beta_constraint": null, "beta_regularizer": null, "dtype": "float32", "moving_mean_initializer": {"config": {"dtype": "float32"}, "class_name": "Zeros"}, "trainable": true, "beta_initializer": {"config": {"dtype": "float32"}, "class_name": "Zeros"}, "scale": true, "epsilon": 0.001, "gamma_constraint": null, "momentum": 0.99, "center": true}, "class_name": "BatchNormalization"}, {"config": {"name": "activation_25", "trainable": true, "activation": "relu", "dtype": "float32"}, "class_name": "Activation"}, {"config": {"data_format": "channels_last", "dtype": "float32", "trainable": true, "strides": [2, 2], "pool_size": [2, 2], "name": "max_pooling2d_21", "padding": "valid"}, "class_name": "MaxPooling2D"}, {"config": {"data_format": "channels_last", "name": "zero_padding2d_20", "trainable": true, "padding": [[1, 1], [1, 1]], "dtype": "float32"}, "class_name": "ZeroPadding2D"}, {"config": {"bias_constraint": null, "kernel_regularizer": null, "trainable": true, "activation": "linear", "strides": [1, 1], "use_bias": true, "name": "conv2d_24", "kernel_initializer": {"config": {"dtype": "float32", "mode": "fan_avg", "distribution": "uniform", "seed": null, "scale": 1.0}, "class_name": "VarianceScaling"}, "dilation_rate": [1, 1], "filters": 128, "data_format": "channels_last", "kernel_constraint": null, "bias_regularizer": null, "kernel_size": [3, 3], "bias_initializer": {"config": {"dtype": "float32"}, "class_name": "Zeros"}, "activity_regularizer": null, "padding": "same", "dtype": "float32"}, "class_name": "Conv2D"}, {"config": {"moving_variance_initializer": {"config": {"dtype": "float32"}, "class_name": "Ones"}, "name": "batch_normalization_26", "gamma_regularizer": null, "gamma_initializer": {"config": {"dtype": "float32"}, "class_name": "Ones"}, "axis": [3], "beta_constraint": null, "beta_regularizer": null, "dtype": "float32", "moving_mean_initializer": {"config": {"dtype": "float32"}, "class_name": "Zeros"}, "trainable": true, "beta_initializer": {"config": {"dtype": "float32"}, "class_name": "Zeros"}, "scale": true, "epsilon": 0.001, "gamma_constraint": null, "momentum": 0.99, "center": true}, "class_name": "BatchNormalization"}, {"config": {"name": "activation_26", "trainable": true, "activation": "relu", "dtype": "float32"}, "class_name": "Activation"}, {"config": {"data_format": "channels_last", "dtype": "float32", "trainable": true, "strides": [2, 2], "pool_size": [2, 2], "name": "max_pooling2d_22", "padding": "valid"}, "class_name": "MaxPooling2D"}, {"config": {"data_format": "channels_last", "name": "zero_padding2d_21", "trainable": true, "padding": [[1, 1], [1, 1]], "dtype": "float32"}, "class_name": "ZeroPadding2D"}, {"config": {"bias_constraint": null, "kernel_regularizer": null, "trainable": true, "activation": "linear", "strides": [1, 1], "use_bias": true, "name": "conv2d_25", "kernel_initializer": {"config": {"dtype": "float32", "mode": "fan_avg", "distribution": "uniform", "seed": null, "scale": 1.0}, "class_name": "VarianceScaling"}, "dilation_rate": [1, 1], "filters": 128, "data_format": "channels_last", "kernel_constraint": null, "bias_regularizer": null, "kernel_size": [3, 3], "bias_initializer": {"config": {"dtype": "float32"}, "class_name": "Zeros"}, "activity_regularizer": null, "padding": "same", "dtype": "float32"}, "class_name": "Conv2D"}, {"config": {"moving_variance_initializer": {"config": {"dtype": "float32"}, "class_name": "Ones"}, "name": "batch_normalization_27", "gamma_regularizer": null, "gamma_initializer": {"config": {"dtype": "float32"}, "class_name": "Ones"}, "axis": [3], "beta_constraint": null, "beta_regularizer": null, "dtype": "float32", "moving_mean_initializer": {"config": {"dtype": "float32"}, "class_name": "Zeros"}, "trainable": true, "beta_initializer": {"config": {"dtype": "float32"}, "class_name": "Zeros"}, "scale": true, "epsilon": 0.001, "gamma_constraint": null, "momentum": 0.99, "center": true}, "class_name": "BatchNormalization"}, {"config": {"name": "activation_27", "trainable": true, "activation": "relu", "dtype": "float32"}, "class_name": "Activation"}, {"config": {"data_format": "channels_last", "dtype": "float32", "trainable": true, "strides": [2, 2], "pool_size": [2, 2], "name": "max_pooling2d_23", "padding": "valid"}, "class_name": "MaxPooling2D"}, {"config": {"data_format": "channels_last", "name": "flatten_1", "trainable": true, "dtype": "float32"}, "class_name": "Flatten"}, {"config": {"bias_constraint": null, "kernel_regularizer": null, "bias_regularizer": null, "kernel_initializer": {"config": {"dtype": "float32", "mode": "fan_avg", "distribution": "uniform", "seed": null, "scale": 1.0}, "class_name": "VarianceScaling"}, "use_bias": true, "name": "dense_2", "kernel_constraint": null, "activity_regularizer": null, "trainable": true, "bias_initializer": {"config": {"dtype": "float32"}, "class_name": "Zeros"}, "units": 1024, "activation": "linear", "dtype": "float32"}, "class_name": "Dense"}, {"config": {"moving_variance_initializer": {"config": {"dtype": "float32"}, "class_name": "Ones"}, "name": "batch_normalization_28", "gamma_regularizer": null, "gamma_initializer": {"config": {"dtype": "float32"}, "class_name": "Ones"}, "axis": [1], "beta_constraint": null, "beta_regularizer": null, "dtype": "float32", "moving_mean_initializer": {"config": {"dtype": "float32"}, "class_name": "Zeros"}, "trainable": true, "beta_initializer": {"config": {"dtype": "float32"}, "class_name": "Zeros"}, "scale": true, "epsilon": 0.001, "gamma_constraint": null, "momentum": 0.99, "center": true}, "class_name": "BatchNormalization"}, {"config": {"name": "activation_28", "trainable": true, "activation": "relu", "dtype": "float32"}, "class_name": "Activation"}, {"config": {"rate": 0.5, "dtype": "float32", "trainable": true, "name": "dropout_1", "seed": null, "noise_shape": null}, "class_name": "Dropout"}, {"config": {"bias_constraint": null, "kernel_regularizer": null, "bias_regularizer": null, "kernel_initializer": {"config": {"dtype": "float32", "mode": "fan_avg", "distribution": "uniform", "seed": null, "scale": 1.0}, "class_name": "VarianceScaling"}, "use_bias": true, "name": "dense_3", "kernel_constraint": null, "activity_regularizer": null, "trainable": true, "bias_initializer": {"config": {"dtype": "float32"}, "class_name": "Zeros"}, "units": 12, "activation": "linear", "dtype": "float32"}, "class_name": "Dense"}, {"config": {"moving_variance_initializer": {"config": {"dtype": "float32"}, "class_name": "Ones"}, "name": "batch_normalization_29", "gamma_regularizer": null, "gamma_initializer": {"config": {"dtype": "float32"}, "class_name": "Ones"}, "axis": [1], "beta_constraint": null, "beta_regularizer": null, "dtype": "float32", "moving_mean_initializer": {"config": {"dtype": "float32"}, "class_name": "Zeros"}, "trainable": true, "beta_initializer": {"config": {"dtype": "float32"}, "class_name": "Zeros"}, "scale": true, "epsilon": 0.001, "gamma_constraint": null, "momentum": 0.99, "center": true}, "class_name": "BatchNormalization"}, {"config": {"name": "activation_29", "trainable": true, "activation": "softmax", "dtype": "float32"}, "class_name": "Activation"}]}, "class_name": "Sequential", "backend": "tensorflow"}